…
ri":"https://localhost:8080/"},"id":"IZc1XBGHQphk","executionInfo":{"status":"ok","timestamp":1654796017663,"user_tz":-540,"elapsed":523,"user":{"displayName":"태민정","userId":"09404291557594492092"}},"outputId":"8764c047-0cc6-4742-f912-277997fe5a11"},"execution_count":null,"outputs":[{"output_type":"stream","name":"stdout","text":["Model: \"sequential_1\"\n","_________________________________________________________________\n"," Layer (type)                Output Shape              Param #   \n","=================================================================\n"," conv2d_4 (Conv2D)           (None, 34, 34, 32)        320       \n","                                                                 \n"," max_pooling2d_4 (MaxPooling  (None, 17, 17, 32)       0         \n"," 2D)                                                             \n","                                                                 \n"," conv2d_5 (Conv2D)           (None, 17, 17, 48)        13872     \n","                                                                 \n"," max_pooling2d_5 (MaxPooling  (None, 8, 8, 48)         0         \n"," 2D)                                                             \n","                                                                 \n"," dropout_3 (Dropout)         (None, 8, 8, 48)          0         \n","                                                                 \n"," flatten_1 (Flatten)         (None, 3072)              0         \n","                                                                 \n"," dense_2 (Dense)             (None, 256)               786688    \n","                                                                 \n"," dropout_4 (Dropout)         (None, 256)               0         \n","                                                                 \n"," dense_3 (Dense)             (None, 3)                 771       \n","                                                                 \n","=================================================================\n","Total params: 801,651\n","Trainable params: 801,651\n","Non-trainable params: 0\n","_________________________________________________________________\n"]}]},{"cell_type":"code","source":["epochs=3 if FAST_RUN else 50\n","history = model.fit(\n","  
…
